cumulative_frequency	cumulative_node_frequency	count	text
0.139	0.139	1825	index
0.235	0.235	1259	f32
0.2947	0.2947	784	arith.constant
0.3421	0.3421	622	f64
0.3894	0.3894	621	func.return
0.423	0.423	441	affine.load
0.4548	0.4548	417	affine.yield
0.4865	0.4865	416	affine.for
0.5128	0.5128	345	i32
0.5354	0.5354	297	operandSegmentSizes
0.5549	0.5549	256	affine.store
0.5729	0.5729	236	arith.addf
0.589	0.589	211	linalg.yield
0.6047	0.6047	207	arith.mulf
0.6197	0.6197	197	map
0.632	0.632	161	i64
0.6437	0.6437	153	[external]
0.6542	0.6542	138	memref.alloc
0.6641	0.6641	130	tensor.extract_slice
0.6722	0.6722	107	scf.yield
0.6802	0.6802	104	memref.load
0.6876	0.6876	98	upperBoundMap
0.6949	0.6949	96	tensor<256x256xf32>
0.7021	0.7021	94	i1
0.7091	0.7091	92	memref.store
0.7155	0.7155	84	tensor<?x?xf32>
0.7218	0.7218	82	scf.for
0.7278	0.7278	80	memref.dim
0.7338	0.7338	78	linalg.fill
0.7396	0.7396	76	fastmath
0.7454	0.7454	76	static_sizes
0.7511	0.7511	75	memref<?xf32>
0.7566	0.7566	73	lowerBoundMap
0.7621	0.7621	71	arith.index_cast
0.7671	0.7671	66	scf.parallel
0.7721	0.7721	66	scf.reduce
0.7769	0.7769	63	static_offsets
0.7815	0.7815	60	vector<3xi64>
0.786	0.786	59	tensor.dim
0.7901	0.7901	54	linalg.generic
0.7941	0.7941	53	tensor<?xf32>
0.798	0.798	51	tensor<?x?x?x?xf32>
0.8018	0.8018	50	arith.subf
0.8055	0.8055	48	memref<2x2xf32>
0.8091	0.8091	47	memref<?x?xf32>
0.8125	0.8125	45	indexing_maps
0.8159	0.8159	45	tensor.empty
0.8193	0.8193	44	memref<?xf64>
0.8226	0.8226	43	arith.addi
0.8258	0.8258	42	arith.divf
0.8285	0.8285	36	linalg.matmul
0.8312	0.8312	36	tensor<16x256xf32>
0.834	0.834	36	tensor<256x16xf32>
0.8366	0.8366	34	arith.cmpi
0.8392	0.8392	34	bufferization.alloc_tensor
0.8418	0.8418	34	static_strides
0.8441	0.8441	31	memref<?x1024xf64>
0.8464	0.8464	30	tensor<?x?x?xf32>
0.8486	0.8486	29	memref.subview
0.8507	0.8507	28	memref<?x?x?xf32>
0.8529	0.8529	28	tensor.collapse_shape
0.855	0.855	28	tensor<i32>
0.8571	0.8571	27	iterator_types
0.859	0.859	26	reassociation
0.861	0.861	25	tensor<5xf32>
0.8628	0.8628	24	tensor.insert_slice
0.8645	0.8645	23	memref<256xf32>
0.8662	0.8662	22	memref.alloca
0.8679	0.8679	22	overflowFlags
0.8695	0.8695	21	arith.muli
0.8711	0.8711	21	tensor.yield
0.8726	0.8726	20	affine.apply
0.8741	0.8741	20	memref<2xf32>
0.8757	0.8757	20	tensor.expand_shape
0.8772	0.8772	20	tensor.pad
0.8787	0.8787	20	tensor<16x8xf32>
0.8801	0.8801	18	memref<256x512xf32>
0.8814	0.8814	17	memref<5xf32>
0.8827	0.8827	17	tensor<5xi1>
0.8838	0.8838	15	tensor.extract
0.8849	0.8849	14	tensor<1x112x112x32xf32>
0.8859	0.8859	14	tensor<f32>
0.887	0.887	14	tosa.concat
0.888	0.888	13	cf.br
0.889	0.889	13	i8
0.89	0.89	13	memref<10xf32>
0.891	0.891	13	tensor<10xf32>
0.892	0.892	13	tensor<3x4xf32>
0.893	0.893	13	vector<4xi64>
0.8939	0.8939	12	bufferization.dealloc
0.8948	0.8948	12	callee
0.8957	0.8957	12	func.call
0.8966	0.8966	12	memref.dealloc
0.8975	0.8975	12	scf.reduce.return
0.8984	0.8984	11	arith.select
0.8992	0.8992	11	bf16
0.9	0.9	11	static_output_shape
0.9008	0.9008	10	arith.extsi
0.9016	0.9016	10	i32*
0.9023	0.9023	10	linalg.conv_2d_nhwc_fhwc
0.9031	0.9031	10	memref<10x2xf32>
0.9038	0.9038	10	memref<2xi32>
0.9046	0.9046	10	memref<?x1000xf64>
0.9054	0.9054	10	static_high
0.9061	0.9061	10	tensor<3x2xf32>
0.9069	0.9069	10	vector<3xi2>
0.9076	0.9076	9	affine.min
0.9083	0.9083	9	f16
0.909	0.909	9	linalg.memoized_indexing_maps
0.9096	0.9096	9	memref<100x100xf32>
0.9103	0.9103	9	memref<?x4000xf64>
0.911	0.911	9	scf.condition
0.9117	0.9117	9	scf.forall
0.9124	0.9124	9	scf.forall.in_parallel
0.9131	0.9131	9	scf.while
0.9138	0.9138	9	tensor<64x128xf32>
0.9144	0.9144	9	tensor<i1>
0.915	0.915	8	memref<1xf32>
0.9157	0.9157	8	memref<3x7xi2>
0.9163	0.9163	8	memref<?xi32>
0.9169	0.9169	8	scf.execute_region
0.9175	0.9175	8	tensor.insert
0.9181	0.9181	8	tensor.parallel_insert_slice
0.9187	0.9187	8	tensor<1x1x7x7xf32>
0.9193	0.9193	8	tensor<2x4x4x2xf32>
0.9199	0.9199	8	vector<3xi1>
0.9205	0.9205	7	arith.trunci
0.921	0.921	7	i16
0.9215	0.9215	7	math.exp
0.9221	0.9221	7	memref<256xi32>
0.9226	0.9226	7	staticUpperBound
0.9231	0.9231	7	static_basis
0.9237	0.9237	7	tensor<112x112x16xf32>
0.9242	0.9242	7	tensor<2x3xf32>
0.9247	0.9247	7	tensor<2xi64>
0.9253	0.9253	7	tensor<32x1xf32>
0.9258	0.9258	7	tensor<4x5xf32>
0.9263	0.9263	7	tensor<4xf32>
0.9268	0.9268	6	affine.linearize_index
0.9272	0.9272	6	cf.cond_br
0.9277	0.9277	6	memref<*xf32>
0.9282	0.9282	6	memref<256x512xi32>
0.9286	0.9286	6	staticLowerBound
0.9291	0.9291	6	tensor.from_elements
0.9295	0.9295	6	tensor<16x128xf32>
0.93	0.93	6	tensor<1x2x7x7xf32>
0.9304	0.9304	6	tensor<320xf32>
0.9309	0.9309	6	tensor<4x4xf32>
0.9313	0.9313	5	affine.dma_start
0.9317	0.9317	5	affine.dma_wait
0.932	0.932	5	alloca
0.9324	0.9324	5	arith.cmpf
0.9328	0.9328	5	arith.extui
0.9332	0.9332	5	arith.maxsi
0.9336	0.9336	5	arith.minsi
0.9339	0.9339	5	arith.minui
0.9343	0.9343	5	arith.subi
0.9347	0.9347	5	linalg.batch_matmul
0.9351	0.9351	5	linalg.copy
0.9355	0.9355	5	load
0.9358	0.9358	5	memref<100x100xf32, 2>
0.9362	0.9362	5	memref<100xf32>
0.9366	0.9366	5	memref<1xi32>
0.937	0.937	5	memref<8xf32, affine_map<(d0)[s0] -> (d0 + s0)>>
0.9374	0.9374	5	staticStep
0.9378	0.9378	5	static_low
0.9381	0.9381	5	store
0.9385	0.9385	5	tensor<16x128x128xf32>
0.9389	0.9389	5	tensor<32x32xf32>
0.9393	0.9393	5	tensor<4x6xf32>
0.9397	0.9397	5	vector.transfer_read
0.94	0.94	4	affine.delinearize_index
0.9403	0.9403	4	affine.max
0.9406	0.9406	4	arith.andi
0.9409	0.9409	4	arith.extf
0.9412	0.9412	4	arith.index_castui
0.9415	0.9415	4	arith.shrui
0.9418	0.9418	4	arith.uitofp
0.9421	0.9421	4	dst_map
0.9424	0.9424	4	i2
0.9427	0.9427	4	linalg.exp
0.943	0.943	4	llvm.mlir.undef
0.9433	0.9433	4	math.sqrt
0.9436	0.9436	4	memref.realloc
0.9439	0.9439	4	memref<4x8xf32>
0.9442	0.9442	4	memref<4x8xi2>
0.9445	0.9445	4	memref<8x12x16xf32>
0.9448	0.9448	4	memref<8x24x48xf32>
0.9451	0.9451	4	memref<?x257x257xf64>
0.9454	0.9454	4	memref<?x257xf64>
0.9458	0.9458	4	memref<?x?xf32, strided<[?, ?], offset: ?>>
0.9461	0.9461	4	memref<f64>
0.9464	0.9464	4	scf.if
0.9467	0.9467	4	tensor<100xf32>
0.947	0.947	4	tensor<10xi32>
0.9473	0.9473	4	tensor<128x128x128x128xf32>
0.9476	0.9476	4	tensor<16x32xf32>
0.9479	0.9479	4	tensor<1x1xf32>
0.9482	0.9482	4	tensor<1x8x16x4xf32>
0.9485	0.9485	4	tensor<1x?x1x?xf32>
0.9488	0.9488	4	tensor<1x?x?xf32>
0.9491	0.9491	4	tensor<1xf32>
0.9494	0.9494	4	tensor<2x3x3x5xf32>
0.9497	0.9497	4	tensor<4x2xf32>
0.95	0.95	4	tensor<4x8x16xf32>
0.9503	0.9503	4	tensor<8x8xf32>
0.9506	0.9506	4	tensor<?x16xf32>
0.9509	0.9509	4	tensor<?x1x1x5xf32>
0.9512	0.9512	4	tensor<?x5xf32>
0.9515	0.9515	4	ui64
0.9518	0.9518	4	vector.load
0.9522	0.9522	4	vector<2xi64>
0.9525	0.9525	4	vector<3xf64>
0.9528	0.9528	4	vector<3xindex>
0.9531	0.9531	4	vector<4xi128>
0.9534	0.9534	4	vector<8xi2>
0.9536	0.9536	3	; undefined function
0.9538	0.9538	3	arith.floordivsi
0.9541	0.9541	3	arith.maximumf
0.9543	0.9543	3	arith.maxui
0.9545	0.9545	3	arith.ori
0.9547	0.9547	3	arith.remsi
0.955	0.955	3	arith.sitofp
0.9552	0.9552	3	dimensions
0.9554	0.9554	3	f8E4M3FNUZ
0.9557	0.9557	3	i1024
0.9559	0.9559	3	in_bounds
0.9561	0.9561	3	linalg.add
0.9563	0.9563	3	linalg.broadcast
0.9566	0.9566	3	linalg.conv_2d_nhwc_hwcf
0.9568	0.9568	3	linalg.transpose
0.957	0.957	3	memref.view
0.9573	0.9573	3	memref<128x128xf32>
0.9575	0.9575	3	memref<128x256xf32>
0.9577	0.9577	3	memref<32xf16, 1>
0.9579	0.9579	3	memref<32xf16, 6>
0.9582	0.9582	3	memref<512xf32>
0.9584	0.9584	3	memref<?x512xf64>
0.9586	0.9586	3	memref<?x6xi32>
0.9589	0.9589	3	memref<i64>
0.9591	0.9591	3	none
0.9593	0.9593	3	permutation
0.9595	0.9595	3	permutation_map
0.9598	0.9598	3	src_map
0.96	0.96	3	tensor<11x13xf32>
0.9602	0.9602	3	tensor<12544x16xf32>
0.9605	0.9605	3	tensor<14x20xf32>
0.9607	0.9607	3	tensor<16x16xf32>
0.9609	0.9609	3	tensor<16xf32>
0.9611	0.9611	3	tensor<1x1x42xf32>
0.9614	0.9614	3	tensor<1x1x8x8xf32>
0.9616	0.9616	3	tensor<1x2xf32>
0.9618	0.9618	3	tensor<1x4x7x7xf32>
0.9621	0.9621	3	tensor<1x?x1xf32>
0.9623	0.9623	3	tensor<1x?xf32>
0.9625	0.9625	3	tensor<2x16x16xf32>
0.9627	0.9627	3	tensor<2x1xf32>
0.963	0.963	3	tensor<2x2xf32>
0.9632	0.9632	3	tensor<2x?x16xf32>
0.9634	0.9634	3	tensor<32x32x32xf32>
0.9637	0.9637	3	tensor<3x4x5xf32>
0.9639	0.9639	3	tensor<3xi32>
0.9641	0.9641	3	tensor<5xi32>
0.9643	0.9643	3	tensor<8x32x32x32xf32>
0.9646	0.9646	3	tensor<?x100xf32>
0.9648	0.9648	3	tensor<?x112x16xf32>
0.965	0.965	3	tensor<?x13xf32>
0.9653	0.9653	3	tensor<?x1x5xf32>
0.9655	0.9655	3	tensor<?x8x2x8xf32>
0.9657	0.9657	3	tensor<?x8xf32>
0.9659	0.9659	3	vector<1xi32>
0.9662	0.9662	3	vector<2xi32>
0.9664	0.9664	3	vector<3xi16>
0.9666	0.9666	3	vector<4xf32>
0.9669	0.9669	3	vector<4xi4>
0.967	0.967	2	!gpu.async.token
0.9672	0.9672	2	arith.ceildivsi
0.9673	0.9673	2	arith.divsi
0.9675	0.9675	2	arith.fptosi
0.9676	0.9676	2	arith.fptoui
0.9678	0.9678	2	arith.negf
0.9679	0.9679	2	arith.shli
0.9681	0.9681	2	arith.shrsi
0.9682	0.9682	2	arith.xori
0.9684	0.9684	2	bufferization.clone
0.9685	0.9685	2	i128
0.9687	0.9687	2	kind
0.9688	0.9688	2	linalg.map
0.969	0.969	2	memref.atomic_rmw
0.9691	0.9691	2	memref.copy
0.9693	0.9693	2	memref<10x20xf32>
0.9694	0.9694	2	memref<16x4xf32>
0.9696	0.9696	2	memref<256xi64>
0.9698	0.9698	2	memref<2x3xf32>
0.9699	0.9699	2	memref<2x8xf32>
0.9701	0.9701	2	memref<3x4x5xf32>
0.9702	0.9702	2	memref<3x4x?xf32>
0.9704	0.9704	2	memref<3x?x5xf32>
0.9705	0.9705	2	memref<4xf8E4M3FNUZ>
0.9707	0.9707	2	memref<4xi8>
0.9708	0.9708	2	memref<64xf32>
0.971	0.971	2	memref<7x14x21xf32>
0.9711	0.9711	2	memref<8xf32>
0.9713	0.9713	2	memref<?x128x128xf64>
0.9714	0.9714	2	memref<?x4x5xf32>
0.9716	0.9716	2	memref<?x4x?xf32>
0.9717	0.9717	2	memref<?x50xi32>
0.9719	0.9719	2	memref<?x6x64xi32>
0.972	0.972	2	memref<?xf32, affine_map<(d0)[s0, s1] -> (d0 * s1 + s0)>>
0.9722	0.9722	2	memref<f32, affine_map<()[s0] -> (s0)>>
0.9723	0.9723	2	memref<f32>
0.9725	0.9725	2	memref<i32>
0.9726	0.9726	2	memref<memref<i64>>
0.9728	0.9728	2	tag_map
0.973	0.973	2	tensor.concat
0.9731	0.9731	2	tensor<105x11xf32>
0.9733	0.9733	2	tensor<123x124xf32>
0.9734	0.9734	2	tensor<128x128x128x?xf32>
0.9736	0.9736	2	tensor<1x100xf32>
0.9737	0.9737	2	tensor<1x15x15xf32>
0.9739	0.9739	2	tensor<1x16x1xf32>
0.974	0.974	2	tensor<1x1x128x480xf32>
0.9742	0.9742	2	tensor<1x225x225x3xf32>
0.9743	0.9743	2	tensor<1x2x3x4xi16>
0.9745	0.9745	2	tensor<1x2x3x4xi32>
0.9746	0.9746	2	tensor<1x2x8x8xf32>
0.9748	0.9748	2	tensor<1x4x8xf32>
0.9749	0.9749	2	tensor<1x6x6xf32>
0.9751	0.9751	2	tensor<1x?x64xf32>
0.9752	0.9752	2	tensor<1xi32>
0.9754	0.9754	2	tensor<2x1x4x2xf32>
0.9755	0.9755	2	tensor<2x2x2x2xf32>
0.9757	0.9757	2	tensor<2x3x5xf32>
0.9758	0.9758	2	tensor<2x3xf64>
0.976	0.976	2	tensor<2x4x1x2xf32>
0.9762	0.9762	2	tensor<2x6x6x5xf32>
0.9763	0.9763	2	tensor<2x8x16xf32>
0.9765	0.9765	2	tensor<2x8x8x2xf32>
0.9766	0.9766	2	tensor<2x8x8xf32>
0.9768	0.9768	2	tensor<2x9x9x2xf32>
0.9769	0.9769	2	tensor<32xf32>
0.9771	0.9771	2	tensor<3x1x4x2xi16>
0.9772	0.9772	2	tensor<3x1x4x2xi32>
0.9774	0.9774	2	tensor<3x2xf64>
0.9775	0.9775	2	tensor<3x3x3x32xf32>
0.9777	0.9777	2	tensor<3x4x5x6x7x8x9xf32>
0.9778	0.9778	2	tensor<3x5x7x11xf32>
0.978	0.978	2	tensor<3xf32, 1 : i64>
0.9781	0.9781	2	tensor<3xf32>
0.9783	0.9783	2	tensor<42x?xf32>
0.9784	0.9784	2	tensor<4x?x4x128x?x32xf16>
0.9786	0.9786	2	tensor<5x6xf32>
0.9787	0.9787	2	tensor<64x16xf32>
0.9789	0.9789	2	tensor<64x64xf32>
0.979	0.979	2	tensor<8x16xf32>
0.9792	0.9792	2	tensor<8x1x8xf32>
0.9794	0.9794	2	tensor<8xf32>
0.9795	0.9795	2	tensor<9x7x8xf32>
0.9797	0.9797	2	tensor<?x128x?xf16>
0.9798	0.9798	2	tensor<?x22xf32>
0.98	0.98	2	tensor<?x4xf32>
0.9801	0.9801	2	tensor<?x?x?x?x1xf32>
0.9803	0.9803	2	tensor<?x?x?x?x1xi32>
0.9804	0.9804	2	tensor<?xbf16>
0.9806	0.9806	2	tensor<i8>
0.9807	0.9807	2	vector.maskedload
0.9809	0.9809	2	vector.maskedstore
0.981	0.981	2	vector.print
0.9812	0.9812	2	vector.store
0.9813	0.9813	2	vector<1x2x10x32xf32>
0.9815	0.9815	2	vector<1x3x7x4x4xf32>
0.9816	0.9816	2	vector<1x3x7x8x8xf32>
0.9818	0.9818	2	vector<3x4x4x8xf32>
0.9819	0.9819	2	vector<3x4x5x8xf32>
0.9821	0.9821	2	vector<4xf8E4M3FNUZ>
0.9822	0.9822	2	vector<5xf32>
0.9824	0.9824	2	vector<8x256xf32>
0.9826	0.9826	2	vector<8xf32>
0.9826	0.9826	1	__test_pipelining_loop__
0.9827	0.9827	1	_someattr
0.9828	0.9828	1	add
0.9829	0.9829	1	affine.if
0.9829	0.9829	1	affine.vector_load
0.983	0.983	1	affine.vector_store
0.9831	0.9831	1	arith.minimumf
0.9832	0.9832	1	arith.truncf
0.9832	0.9832	1	condition
0.9833	0.9833	1	gpu.launch
0.9834	0.9834	1	gpu.terminator
0.9835	0.9835	1	i4
0.9835	0.9835	1	index.constant
0.9836	0.9836	1	linalg.batch_reduce_matmul
0.9837	0.9837	1	linalg.depthwise_conv_2d_nhwc_hwcm
0.9838	0.9838	1	linalg.depthwise_conv_2d_nhwc_hwcm_q
0.9838	0.9838	1	linalg.select
0.9839	0.9839	1	linalg.sub
0.984	0.984	1	mapping
0.9841	0.9841	1	math.absf
0.9842	0.9842	1	math.sin
0.9842	0.9842	1	memref.cast
0.9843	0.9843	1	memref.expand_shape
0.9844	0.9844	1	memref.get_global
0.9845	0.9845	1	memref.reshape
0.9845	0.9845	1	memref<10xi32>
0.9846	0.9846	1	memref<128x256xi32>
0.9847	0.9847	1	memref<128x384xf32>
0.9848	0.9848	1	memref<128xf32>
0.9848	0.9848	1	memref<16x16xf32>
0.9849	0.9849	1	memref<16xf32>
0.985	0.985	1	memref<1x16x1x16xf32>
0.9851	0.9851	1	memref<1x224x224x64xf32>
0.9851	0.9851	1	memref<1x2xf32>
0.9852	0.9852	1	memref<1x8xf32>
0.9853	0.9853	1	memref<1x9x1x4x1xf32, strided<[36, 36, 4, 4, 1]>>
0.9854	0.9854	1	memref<1x9x4xf32, strided<[?, ?, ?], offset: ?>>
0.9854	0.9854	1	memref<1x?x5x1x?x1xf32, strided<[?, ?, ?, ?, ?, ?], offset: ?>>
0.9855	0.9855	1	memref<1xi64>
0.9856	0.9856	1	memref<20x30xf32>
0.9857	0.9857	1	memref<20xf32>
0.9858	0.9858	1	memref<256x512x1024xf32>
0.9858	0.9858	1	memref<256x512xi64>
0.9859	0.9859	1	memref<2x2xi32>
0.986	0.986	1	memref<2x32xf32>
0.9861	0.9861	1	memref<32x512xi32>
0.9861	0.9861	1	memref<3x3xf32, strided<[3, 1], offset: 6>>
0.9862	0.9862	1	memref<3x4x5xf32, affine_map<(d0, d1, d2) -> (d0 ceildiv 4 + d1 + d2)>>
0.9863	0.9863	1	memref<3x4x5xf32, affine_map<(d0, d1, d2) -> (d0 floordiv 4 + d1 + d2)>>
0.9864	0.9864	1	memref<3x4x5xf32, affine_map<(d0, d1, d2) -> (d0 mod 4 + d1 + d2)>>
0.9864	0.9864	1	memref<3x4x5xf32, affine_map<(d0, d1, d2)[s0, s1, s2] -> ((d0 + (d1 + d2 * s2) * s1) * s0 + s0)>>
0.9865	0.9865	1	memref<3x4x5xf32, affine_map<(d0, d1, d2)[s0, s1, s2] -> ((d0 + 1) * s0 + d1 + d2 - s0)>>
0.9866	0.9866	1	memref<3x4x5xf32, affine_map<(d0, d1, d2)[s0, s1, s2] -> (d0 * s0 + d0 * s1 + d1 * (s1 * s2) + d2 * (s2 * s2) - (d0 + 1) * (s0 + s1 - 20))>>
0.9867	0.9867	1	memref<3x4x5xf32, affine_map<(d0, d1, d2)[s0, s1, s2] -> (d0 * s0 + d0 * s1 + d1 * s1 + d2 * s2 - d0 * (s0 + s1 - 20))>>
0.9867	0.9867	1	memref<3x4x5xf32, affine_map<(d0, d1, d2)[s0] -> (d0 * 32 + d1 * 16 + d2 * s0 + 1)>>
0.9868	0.9868	1	memref<3x4x5xf32, affine_map<(d0, d1, d2)[s0] -> (d0 * 32 + d1 * s0 + d2 * 16 + 3)>>
0.9869	0.9869	1	memref<3x4x5xf32, strided<[20, 5, 1]>>
0.987	0.987	1	memref<3x4x?xf32, strided<[?, ?, 1]>>
0.987	0.987	1	memref<3x?x5xf32, affine_map<(d0, d1, d2)[s0] -> (d0 * s0 + d1 * 32 + d2 * 16 + 7)>>
0.9871	0.9871	1	memref<3x?x5xf32, affine_map<(d0, d1, d2)[s0] -> (d0 * s0 + d1 * 32 + d2 * 16 + s0)>>
0.9872	0.9872	1	memref<3x?x5xf32, strided<[?, 32, 16], offset: ?>>
0.9873	0.9873	1	memref<3x?x5xf32, strided<[?, 5, 1]>>
0.9874	0.9874	1	memref<3xf32, strided<[1], offset: 3>>
0.9874	0.9874	1	memref<3xi32>
0.9875	0.9875	1	memref<4x4x4xf32, strided<[64, 4, 1], offset: 8>>
0.9876	0.9876	1	memref<4x4xf32, strided<[8, 2], offset: ?>>
0.9877	0.9877	1	memref<4x4xf32, strided<[?, 1]>>
0.9877	0.9877	1	memref<4x4xf32, strided<[?, ?], offset: ?>>
0.9878	0.9878	1	memref<4x4xi8>
0.9879	0.9879	1	memref<4x8xf32, strided<[1, 4], offset: 100>>
0.988	0.988	1	memref<4x8xf32, strided<[18, 2], offset: 100>>
0.988	0.988	1	memref<4x8xf32, strided<[8, 1], offset: 100>>
0.9881	0.9881	1	memref<512xi32>
0.9882	0.9882	1	memref<5x3xf32>
0.9883	0.9883	1	memref<5xf32, affine_map<(d0)[s0] -> (123)>>
0.9883	0.9883	1	memref<5xf32, affine_map<(d0)[s0] -> (s0)>>
0.9884	0.9884	1	memref<64x22xf32, strided<[22, 1]>>
0.9885	0.9885	1	memref<64x64xf32>
0.9886	0.9886	1	memref<64xf32, affine_map<(d0)[s0] -> (d0 + s0)>>
0.9886	0.9886	1	memref<6x3xf32, strided<[4, 1], offset: 209>>
0.9887	0.9887	1	memref<8x12x16xi32>
0.9888	0.9888	1	memref<8x12xf32, strided<[24, 2], offset: 100>>
0.9889	0.9889	1	memref<8x16x4xf32, strided<[64, 4, 1]>>
0.989	0.989	1	memref<8x16x4xf32>
0.989	0.989	1	memref<8x24x48xi32>
0.9891	0.9891	1	memref<8x4xi32>
0.9892	0.9892	1	memref<8x4xi8>
0.9893	0.9893	1	memref<8x8xf32, affine_map<(d0, d1)[s0] -> (d0 * 16 + d1 + s0)>>
0.9893	0.9893	1	memref<8xindex>
0.9894	0.9894	1	memref<9x4xf32, strided<[?, ?], offset: ?>>
0.9895	0.9895	1	memref<?x1025xf64>
0.9896	0.9896	1	memref<?x128xf64>
0.9896	0.9896	1	memref<?x2xi32>
0.9897	0.9897	1	memref<?x384xf32, affine_map<(d0, d1)[s0] -> (d0 * 384 + s0 + d1)>>
0.9898	0.9898	1	memref<?x50x50xi32>
0.9899	0.9899	1	memref<?x512xindex>
0.9899	0.9899	1	memref<?x5x?x1xf32, strided<[?, ?, ?, ?], offset: ?>>
0.99	0.99	1	memref<?x5x?xf32, strided<[?, ?, ?], offset: ?>>
0.9901	0.9901	1	memref<?x5xf32>
0.9902	0.9902	1	memref<?x?x16xf32, affine_map<(d0, d1, d2)[s0, s1] -> (d0 * s0 + d1 * s1 + d2 + 1)>>
0.9902	0.9902	1	memref<?x?x16xf32, strided<[?, ?, 1], offset: 1>>
0.9903	0.9903	1	memref<?x?x8xf32>
0.9904	0.9904	1	memref<?x?x?xf32, strided<[?, ?, ?], offset: ?>>
0.9905	0.9905	1	memref<?xf32, affine_map<(d0)[s0] -> (d0 + s0)>>
0.9906	0.9906	1	memref<?xi8>
0.9906	0.9906	1	memref<?xvector<2xf32>>
0.9907	0.9907	1	memref<f32, affine_map<() -> (4)>>
0.9908	0.9908	1	memref<f32, affine_map<()[s0] -> (123)>>
0.9909	0.9909	1	memref<memref<memref<i64>>>
0.9909	0.9909	1	mul
0.991	0.991	1	name
0.9911	0.9911	1	punctuation
0.9912	0.9912	1	reduction_dims
0.9912	0.9912	1	ret
0.9913	0.9913	1	tensor.generate
0.9914	0.9914	1	tensor<10x5xf32>
0.9915	0.9915	1	tensor<112xf32>
0.9915	0.9915	1	tensor<11x100xf32>
0.9916	0.9916	1	tensor<123x125xf32>
0.9917	0.9917	1	tensor<123x456xf32>
0.9918	0.9918	1	tensor<125x124xf32>
0.9918	0.9918	1	tensor<128x480xf32>
0.9919	0.9919	1	tensor<128x64xf32>
0.992	0.992	1	tensor<128x?xf32>
0.9921	0.9921	1	tensor<12x32xf32>
0.9922	0.9922	1	tensor<13x16xf32>
0.9922	0.9922	1	tensor<16x4xf32>
0.9923	0.9923	1	tensor<16x64xf32>
0.9924	0.9924	1	tensor<16x?xf32>
0.9925	0.9925	1	tensor<1x11x100xf32>
0.9925	0.9925	1	tensor<1x1x1x100xf32>
0.9926	0.9926	1	tensor<1x1x1x8x8xf32>
0.9927	0.9927	1	tensor<1x1x1x?xf32>
0.9928	0.9928	1	tensor<1x1x1xf32>
0.9928	0.9928	1	tensor<1x1x8xi8>
0.9929	0.9929	1	tensor<1x28x28x1xf32>
0.993	0.993	1	tensor<1x2x4x8xf32>
0.9931	0.9931	1	tensor<1x32x32x16xf32>
0.9931	0.9931	1	tensor<1x32x32x1xf32>
0.9932	0.9932	1	tensor<1x3xf32>
0.9933	0.9933	1	tensor<1x4x8x8xf32>
0.9934	0.9934	1	tensor<1x5x6xf32>
0.9934	0.9934	1	tensor<1x6x5xf32>
0.9935	0.9935	1	tensor<1x8x7x7xf32>
0.9936	0.9936	1	tensor<1x?x1x100x10xf32>
0.9937	0.9937	1	tensor<1x?x1x100xf32>
0.9938	0.9938	1	tensor<20x11xf32>
0.9938	0.9938	1	tensor<2x10x10x5xf32>
0.9939	0.9939	1	tensor<2x11x11x5xf32>
0.994	0.994	1	tensor<2x16x8xf32>
0.9941	0.9941	1	tensor<2x1x3x5xf32>
0.9941	0.9941	1	tensor<2x1x6x5xf32>
0.9942	0.9942	1	tensor<2x2x7x7xf32>
0.9943	0.9943	1	tensor<2x3x1x5xf32>
0.9944	0.9944	1	tensor<2x3x2x5xf32>
0.9944	0.9944	1	tensor<2x3x3x5xf16>
0.9945	0.9945	1	tensor<2x3x5xi32>
0.9946	0.9946	1	tensor<2x4x4x5xf32>
0.9947	0.9947	1	tensor<2x4xf32>
0.9947	0.9947	1	tensor<2x5x5x5xf32>
0.9948	0.9948	1	tensor<2x6x1x5xf32>
0.9949	0.9949	1	tensor<2x6x32xf32>
0.995	0.995	1	tensor<2x6x5x5xf32>
0.995	0.995	1	tensor<2x6x6x5xf16>
0.9951	0.9951	1	tensor<2x7x7x5xf32>
0.9952	0.9952	1	tensor<2x?x6xf32>
0.9953	0.9953	1	tensor<2x?x8xf32>
0.9954	0.9954	1	tensor<30x11x100xf32>
0.9954	0.9954	1	tensor<330x100xf32>
0.9955	0.9955	1	tensor<330x?xf32>
0.9956	0.9956	1	tensor<3x11x13xf32>
0.9957	0.9957	1	tensor<3x5xf32>
0.9957	0.9957	1	tensor<3x?x?x11x2xf32>
0.9958	0.9958	1	tensor<3x?x?x11x?xf32>
0.9959	0.9959	1	tensor<3x?x?x11xf32>
0.996	0.996	1	tensor<49x?xf32>
0.996	0.996	1	tensor<4x11x3xf32>
0.9961	0.9961	1	tensor<4x4x3xf32>
0.9962	0.9962	1	tensor<4x5x7xf32>
0.9963	0.9963	1	tensor<4x7x3xf32>
0.9963	0.9963	1	tensor<4x8x16xi1>
0.9964	0.9964	1	tensor<4x8xf32>
0.9965	0.9965	1	tensor<4x?x2x?xf32>
0.9966	0.9966	1	tensor<4x?x4x128x?x?x?xf16>
0.9966	0.9966	1	tensor<4x?x4x128x?x?xf16>
0.9967	0.9967	1	tensor<4x?x4x128x?xf16>
0.9968	0.9968	1	tensor<4x?x4x32x4x?xf16>
0.9969	0.9969	1	tensor<4x?x?x?xf32>
0.997	0.997	1	tensor<4x?xf32>
0.997	0.997	1	tensor<58x1xf32>
0.9971	0.9971	1	tensor<64x?x64xf32>
0.9972	0.9972	1	tensor<6x2xf32>
0.9973	0.9973	1	tensor<6x5xi32>
0.9973	0.9973	1	tensor<6xf32>
0.9974	0.9974	1	tensor<7x8x9xf32>
0.9975	0.9975	1	tensor<7x9xf32>
0.9976	0.9976	1	tensor<8x16x32x?xf32>
0.9976	0.9976	1	tensor<8x16x4xf32>
0.9977	0.9977	1	tensor<8x18x4xf32>
0.9978	0.9978	1	tensor<8x?xf32>
0.9979	0.9979	1	tensor<8xi8>
0.9979	0.9979	1	tensor<?x1000xf32>
0.998	0.998	1	tensor<?x11xf32>
0.9981	0.9981	1	tensor<?x128x?x?xf16>
0.9982	0.9982	1	tensor<?x1x?xf32>
0.9982	0.9982	1	tensor<?x1xf32>
0.9983	0.9983	1	tensor<?x22xi16>
0.9984	0.9984	1	tensor<?x2x1xf32>
0.9985	0.9985	1	tensor<?x2xf32>
0.9986	0.9986	1	tensor<?x42xf32>
0.9986	0.9986	1	tensor<?x6xf32>
0.9987	0.9987	1	tensor<?x8x8xf32>
0.9988	0.9988	1	tensor<?x?x?x1xf32>
0.9989	0.9989	1	tensor<?x?x?x1xi8>
0.9989	0.9989	1	tensor<?x?x?x?xi8>
0.999	0.999	1	tensor<?xi16>
0.9991	0.9991	1	tensor<index>
0.9992	0.9992	1	tosa.argmax
0.9992	0.9992	1	vector.mask
0.9993	0.9993	1	vector.multi_reduction
0.9994	0.9994	1	vector.reduction
0.9995	0.9995	1	vector.transfer_write
0.9995	0.9995	1	vector.vscale
0.9996	0.9996	1	vector.yield
0.9997	0.9997	1	vector<1xi1>
0.9998	0.9998	1	vector<2xf32>
0.9998	0.9998	1	vector<2xi1>
0.9999	0.9999	1	vector<3x4xi4>
1	1	1	vector<3x4xi64>
